MNIST/mnist.pth (torch, 53831 bytes, 6 tensors)

lin1.weight f4 [16, 784]
00000000: e576 bdbc 25a0 a53c b86a 0ebd d8f8 623c
00000010: 776b 94bc 56ac 033d dcaa c1ba 650d 513c
00000020: 18b1 7f3c ee2a 8bbb dc0a edbb 5c7f 343b
00000030: 29d1 1abd f6d5 6c3c 5cd8 103c 25e1 223c
00000040: 6e6c 033b ca4a f8bc 73cd 28bc b31a 113c
00000050: 6ef7 18bc 6c73 0e3d 77db d4bc c5f2 e53c
00000060: 6a64 4fbc 3aec 02bd 0329 cbbc e548 1bbc
00000070: d6b7 0fbd cee2 ca3c ee93 603c 7dec 113d
00000080: 3981 5a3c 07e1 29bd 8763 ae3b 1dba 6fbb
00000090: 2bf8 d83c 55d1 9c3b 71f8 4b3d 0b63 fb3c
000000a0: 2807 cbbc f874 4abc e5ed 053d b0a2 a6bc
000000b0: 2006 b2b6 6a31 cfbc ecc1 d5bc 9b4f fcbc
000000c0: a773 04bd da2f 51bd 1ff5 2bbd b17e 853c
000000d0: ee0a 0fbb ca5b c1bc 7778 c33c 85c5 183c
000000e0: 03ea acbc 0586 09bc f8f6 c53c 63ea d03c
000000f0: 85e5 ec3c 080a b03c 520b 803d 2d9a 273d
00000100: d7ea 843c cf74 6d3d 3f00 7a3d cc0d 5d3d
00000110: 09b1 fd3c c9b0 fa3c 35bb 7c3d cc15 303d
00000120: 8523 6b3d 154e 4cbd 9830 a1bd f7c8 2abe
00000130: a7f0 25be a016 07be 8bbc c5bd 043c cbbc
00000140: c4ee 04bc df0c 21bd 9c56 ed3b 05db 363c
00000150: eab2 c93c b1c7 c4bc 0679 d0bb 0164 a43c
00000160: 6787 ac3d 9878 513d c562 813c b8d7 ea3c
00000170: 3e9f bf3d 6669 383d 96af 2a3d 83e5 913d
00000180: 4576 753d 3976 873d 09bc 733d f465 073d
00000190: 404b 64bd 6c1b f3bd 7ebb 0cbe 0e58 01be
000001a0: 02df 12bd effc 953d 86bd 783d d730 c13d
000001b0: e3c0 d53c a89d a63c a468 dabc 85c1 d4bc
000001c0: 8e1a 033c 81d2 353d d5db 303c c900 c33c
000001d0: fe81 d23d 277f c23d c455 e33d 1f27 ca3d
000001e0: 1575 9b3d 39ba 153e e019 103e d92b e63d
000001f0: d34e 913d e266 903c 49cf 8c3d 839d 213d
00000200: 386f 0bbd 1143 22bb edce 12bd 2244 753c
00000210: ab2b 893c df46 d2bc c049 69bc c715 8dbd
00000220: 6c3e f8bc 6178 6ebd c91e 1f3d 4357 19bc
00000230: 6558 273c c1a5 ce3b 5aa4 723d e934 d73c
00000240: c3f1 aa3d ce66 043e 19b8 bb3d 5ae8 563d
00000250: 0db7 023e b96d e03d 4130 d33d fdfd 2e3d
00000260: a9d5 813d eb9d b53d 6308 293e 9926 d93d
00000270: 40cc a13d f776 883d 45d6 9a3d 1820 4d3d
00000280: dee2 063d dc6d 31bc 1c6c a2bd 10d8 12be
00000290: dd84 92bd 20d2 02be eaa3 bbbd cf2a 643d
000002a0: f7e8 913b a5f8 4bbc 6cc6 8a3d 4f85 043e
000002b0: e201 d73d 1e06 0a3e 2cf9 d93d 0e27 3d3d
000002c0: 6cbc ee3d ee77 f33c dd78 5f3d be56 873d
000002d0: 564e 363d 7339 993d fa5c b03d b1e5 d13d
000002e0: 8e0b 913d 3f50 b43c 9f3e 31bd 1239 b13a
000002f0: f03d ad3c bba9 833b 6acf 0bbd da83 97bd
00000300: b97c b7bd 3726 10be 20a5 b7bc 5a21 0f3d
00000310: 7af0 df3c 8afd 3bbb 6efa 103b d15b 183e
00000320: 8a8f 513e f57c 053e bc7d a73d 17d9 983d
00000330: 6636 363d 645f dc3c ce40 8c3d d06d ad3c
00000340: f33e 5c3d 4758 6b3d 0234 163d a1ab 633d
00000350: 0d01 813b 646b 6dbd 475c 8bbd 620c 5abd
00000360: ef0d 3f3d 34d1 9e3d bf0f a93d 7c30 9f3c
00000370: 0fed 29bd 366e d6bd 922e 843c d9a1 1e3c
00000380: f942 d4bc 5a4d 6a3d e66a 433d 2dce fb3d
00000390: 1be4 523e 374f a23d 97f6 323d 1de8 213c
000003a0: 4e02 223c 6d9d b03c 676a cf3c b812 5cbc
000003b0: 5843 493d d44d 1d3d 9cae 163d 986b 70ba
000003c0: 2e31 37bd bf8c c0bd 881e 40bc 41d5 c83c
000003d0: a913 353d 0f9e 183e 1213 e03d 46ae f13d
000003e0: 70b6 ef3c 8103 95bc 63ef 593d 169b 2f3d
000003f0: ffc3 f53b fa82 9cbc a4de ad3c 788a 0b3e
-0.023127982 0.020217964 -0.034769744 0.013853274 -0.01811765 0.032146774 -0.0014775652 0.012759541
0.015606187 -0.004247061 -0.0072339606 0.0027541732 -0.037797127 0.014455309 0.008840647 0.009941374
0.0020053643 -0.0303091 -0.010302889 0.008856463 -0.009336336 0.034778044 -0.025983555 0.028069863
-0.012658218 -0.031963564 -0.02479983 -0.009477829 -0.03508743 0.024766352 0.013707144 0.035625923
0.013336473 -0.04147437 0.005321923 -0.0036579438 0.026485523 0.0047856965 0.04979748 0.030686876
-0.024783686 -0.012356989 0.032697577 -0.020341247 -5.3055264e-06 -0.025292117 -0.026093446 -0.030799678
-0.032336857 -0.051071025 -0.041981813 0.016295763 -0.0021826583 -0.023603339 0.023861153 0.009324436
-0.02110768 -0.008393769 0.024165615 0.02550239 0.028918037 0.021489158 0.06252159 0.040918518
0.016225262 0.057972725 0.06103539 0.053968236 0.030968206 0.030601876 0.061701972 0.042989537
0.05740692 -0.049879152 -0.07870597 -0.16678225 -0.16205083 -0.13192225 -0.09655102 -0.024808891
-0.008113567 -0.039318915 0.0072429907 0.011160617 0.024621446 -0.024021002 -0.0063620834 0.020067217
0.084242634 0.051140398 0.015794167 0.028667316 0.09356545 0.04502239 0.041671358 0.07123854
0.059927244 0.06614346 0.059505496 0.033056214 -0.055735826 -0.11870465 -0.13743398 -0.12631246
-0.035857208 0.07323634 0.06072762 0.094331436 0.026092952 0.020338848 -0.026661225 -0.025971184
0.008001937 0.044390205 0.0107946 0.023804085 0.102787 0.09496909 0.11100343 0.09870743
0.07590691 0.1462182 0.1407237 0.11238832 0.07095113 0.017627183 0.06875474 0.039456856
-0.034041613 -0.0024759213 -0.03584187 0.014969857 0.016744455 -0.02566856 -0.014238775 -0.06888919
-0.030303203 -0.05822027 0.03884772 -0.009359184 0.010213946 0.0063063805 0.05923877 0.026270347
0.08346894 0.12929842 0.09165973 0.05246768 0.12765141 0.10958428 0.10311938 0.04272269
0.063395806 0.08868011 0.16507106 0.10603065 0.07900286 0.06663316 0.075604 0.050079435
0.0329312 -0.010829415 -0.079307765 -0.14340234 -0.07154248 -0.12775469 -0.091621235 0.055704888
0.0044528204 -0.012449418 0.06776127 0.12941478 0.10498406 0.13478896 0.10643229 0.046179824
0.11657032 0.029720273 0.054558624 0.06608342 0.0445083 0.07481661 0.08611484 0.10248888
0.07082282 0.02201092 -0.04327261 0.0013521037 0.021147698 0.004018036 -0.034133352 -0.073981956
-0.08959336 -0.14077078 -0.022417605 0.034943916 0.027336348 -0.0028685057 0.0022121924 0.14878775
0.20464912 0.13035949 0.08178279 0.074632816 0.044485472 0.026900955 0.06848298 0.021170527
0.05377097 0.057457235 0.036670692 0.0555836 0.003936893 -0.057963744 -0.0680471 -0.053234465
0.046644147 0.07754746 0.082549565 0.019432299 -0.041485842 -0.1047024 0.016135488 0.009682142
-0.025910841 0.057202674 0.04770937 0.12295184 0.20594828 0.07925265 0.043692198 0.009882
0.009888245 0.021559441 0.025319291 -0.013432197 0.04913649 0.0384043 0.036787614 -0.0009171306
-0.044724636 -0.09401845 -0.011726029 0.02451575 0.044208203 0.14904045 0.109411374 0.11800818
0.029261798 -0.018190147 0.053206813 0.04287251 0.007500171 -0.019105423 0.021224327 0.1362704

lin1.bias f4 [16]
00000000: 0f83 573e 196d 283e b3d4 253e 99fa 313e
00000010: d436 253e 28e6 ac3d 81aa 103e 5a3f 603e
00000020: 66ea 003e 0e4f a73c f48b 2c3e 43f2 153e
00000030: 3a7e 143e 50f6 c63c 7fd0 fb3d 9415 793e
0.21046089 0.16447867 0.1619442 0.17380752 0.16134197 0.08442336 0.14127542 0.21899167
0.12589416 0.020423438 0.16850263 0.14643197 0.14501277 0.024287373 0.12295627 0.24324638

lin2.weight f4 [16, 16]
00000000: 398b b93e c46b f83e e591 833a 8ba1 66be
00000010: 4f74 3c3c 2455 84be 515f 933d bd67 aa3e
00000020: 94e5 e53e b319 773e 90ce 00be 3a2d 67be
00000030: 2f58 b83e ebd3 23bc 5762 ce3e 6d0e 083f
00000040: 1860 d33e 9fc5 d13e ec31 90be 1386 11ba
00000050: 9c91 b1be 5b40 03be e5ca 9fbe 69b3 433e
00000060: e694 8f3e 12f1 4a3c f2f0 bfbe 26b9 693e
00000070: c5af 993d 2d12 a4bd 2db3 a1bd 715a 643d
00000080: 0186 e13e b468 b2be b694 aa3d 5499 253c
00000090: dc52 113f 8603 733e 3e4d a43e 8007 7abd
000000a0: a060 9c3b 7f48 363e 954f debe e7e6 d1bc
000000b0: 2798 ce3e 8fb2 6abe 8111 153f d414 83bd
000000c0: 9f38 ecbd 9cd0 9d3e a495 aa3e a0c0 dabe
000000d0: eb40 c7be 664a b33e 2aa9 5cbd 8281 b23d
000000e0: dc2d ee3d d8fb d53d ef0f 523e 4a61 533e
000000f0: d6b7 a0bd b0dd 25be 1b44 4d3e 77eb 383e
00000100: d410 c2bc dd73 2a3e 89b4 0b3f 5f81 133e
00000110: cdb9 fd3e 153a cc3e 1457 7e3e d6fd d1be
00000120: d091 28be 0c1e 0c3e b48d d73d ed3e 673e
00000130: 2238 82be 48a7 c3bd df23 da3d 0f1f 8ebe
00000140: 92d5 c9bd 32d5 043e b4fa 53be 80bc 943d
00000150: f0b7 71be c5b9 b23d de38 053e b312 9f3d
00000160: a7f9 89bd da5f 553e 5094 263d 5f80 973d
00000170: 3d23 893d fe8b 7bbe d023 cebc 9deb 83be
00000180: b5ea a63d 1a6c 9c3e b11c a23e 2d4e de3e
00000190: e287 c6bd 6d6e c0be 8c40 eabe 5bce da3e
000001a0: 9edd 053d 68f7 0d3e e8c5 72be b2c8 033e
000001b0: 80ba 343e fcc2 4c3e 60eb cbbe 54a2 f3bc
000001c0: fe8c 483e 8f5e ab3e 32b4 2b3d 22c7 833e
000001d0: d974 c63e ff11 4c3d d585 9d3d 1ee8 ba3e
000001e0: ba89 713e 34ef 3b3e a58c 85be a93e 6dbe
000001f0: 8e02 a93e 9813 9c3d 2ab2 a3be 9b60 063f
00000200: a935 c83e 2523 b5bd 8b8d 5dbc 867a 94bd
00000210: 3a33 eabd ca81 d93e 2293 f83e 297c ac3e
00000220: 76de b2be 2fbd 033e f140 d03e 056d ccbd
00000230: 354f 963e fb22 d53d ce88 14be f014 543e
00000240: 3f3e 8fbe 248d 0fbe def6 b1bd 7c4f 31be
00000250: 4de0 34be 06d1 2d3e c7c8 123e 3080 84bd
00000260: 9a3c 03be 7e71 e4bb 4433 8dbc 6588 0e3d
00000270: 1e4d 5c3d d8e6 3cbe 6354 e13d eb23 48be
00000280: 993d 66be b637 55be b9af 8bbe f845 4cbd
00000290: 5b52 ccbd 3c92 c3bd 9c6d 15be 3141 0e3e
000002a0: bb29 5ebe aa10 333e 4755 383e ad7c 883d
000002b0: 926e 483e 8f68 513e 9a46 1f3e cbf5 7cbe
000002c0: c473 09bd 0fa0 a13e 4449 063e 609c 0a3f
000002d0: 9693 b33e d332 8fbe 9723 743e 2367 4f3e
000002e0: 87a7 d3bd b9fb 7abe ccdc 81be 09ca 363e
000002f0: 98fb 12bd ade4 2fbe 7863 e4be 3142 e23e
00000300: 4fc8 093e 196e fb3d 1fb0 ec3e eda4 2d3e
00000310: d6cf ff3d 2d27 5f3d ae57 19be aa05 d03d
00000320: b2d2 e83e 3040 1b3d 949c 27be c9b9 083f
00000330: 562c d5be 15ec 9cbd 1391 033f 0143 c13e
00000340: 1144 ec3d c218 fbbd 4cc5 b83e c399 a9be
00000350: 5306 67be 8d72 cc3b db61 c9be f211 ad3e
00000360: c6d9 843e 59a5 2ebe 37b8 a13e 399f a53e
00000370: aad0 bdbe 8511 9abd 96b7 d13c 6a21 1e3e
00000380: a84f 453e af6b 9a3b 6beb b33e 3a7e c43e
00000390: 7284 3cbe 9ce0 ee3e 6d80 73bc 2525 db3d
000003a0: 0631 a8be 3b38 53be 1625 943e 1af9 98be
000003b0: 614d ab3e e2b2 45be 8094 1fbe 77c1 1fbe
000003c0: 95b3 a03e 331a 513e 66df 7bbe 602c de3d
000003d0: 8c74 013f ff27 a73e 2bf3 043f ffc6 a13d
000003e0: bd80 05bd bc20 6e3e d0bc 223e 79d6 cdbd
000003f0: 5bcb 2bbe e45b 42be 453c 1a3e b67a e23e
0.3623903 0.4851972 0.0010037987 -0.22522561 0.0115023395 -0.25846207 0.071959145 0.3328227
0.44901717 0.24130897 -0.12578797 -0.22575846 0.3600478 -0.009999256 0.40309402 0.5314701
0.4128425 0.40971085 -0.28163087 -0.00055512897 -0.34681404 -0.12817518 -0.31209484 0.19111408
0.28043288 0.012386577 -0.37488514 0.22824535 0.075042285 -0.08011279 -0.07895503 0.055750314
0.4404755 -0.34845507 0.083291456 0.010107357 0.5676706 0.23731813 0.3209018 -0.06104231
0.004772261 0.17801093 -0.4342009 -0.025622798 0.40350458 -0.22919677 0.58229834 -0.06400457
-0.11534237 0.3082322 0.33317292 -0.42725086 -0.38916716 0.350177 -0.053872265 0.08716108
0.11629841 0.10448426 0.2051389 0.20642582 -0.07847564 -0.16197848 0.20045511 0.18058573
-0.023689665 0.16645761 0.5457235 0.1440482 0.49555817 0.39888063 0.24837905 -0.41013974
-0.16461873 0.13683337 0.105250746 0.22582598 -0.2543345 -0.09553391 0.10651373 -0.2775807
-0.098551884 0.12971953 -0.20701104 0.07262516 -0.23605323 0.08726839 0.13009974 0.077672385
-0.067370705 0.20837346 0.040668786 0.07397532 0.06696174 -0.24565122 -0.025163561 -0.25765696
0.081502356 0.30551225 0.31662515 0.43419018 -0.09693886 -0.37584248 -0.4575237 0.42735562
0.032682054 0.13863909 -0.23708308 0.12869528 0.17649269 0.19996256 -0.39828014 -0.02974049
0.19585034 0.3347058 0.041919895 0.25737864 0.38761023 0.04982185 0.07691542 0.36505216
0.23587695 0.18352968 -0.26083866 -0.23168434 0.33009762 0.07620925 -0.31971866 0.5249116
0.3910344 -0.08844594 -0.013522516 -0.07249932 -0.11435552 0.42481834 0.48549753 0.33688477
-0.3493535 0.12865137 0.40674546 -0.09981731 0.29357305 0.104070626 -0.14505312 0.20711112
-0.27977178 -0.14018685 -0.08689664 -0.17315477 -0.17663689 0.16974267 0.14334403 -0.06469762
-0.12816086 -0.006971537 -0.01723636 0.034798045 0.053784482 -0.18447435 0.110024236 -0.19544952
-0.22484435 -0.20822033 -0.27282503 -0.049871415 -0.099766456 -0.09549376 -0.14592594 0.13892056
-0.21695606 0.17486826 0.1800128 0.06664405 0.19573429 0.20450042 0.15554276 -0.24703138
-0.03355767 0.31567428 0.13113886 0.5414486 0.35073537 -0.27968463 0.23841701 0.20254187
-0.10334688 -0.24510087 -0.25363767 0.17850508 -0.03588447 -0.17177077 -0.4460714 0.44191125
0.13455318 0.12276859 0.4622812 0.16957445 0.124908134 0.05448072 -0.14974853 0.1015733
0.45473248 0.03790301 -0.16368324 0.53408486 -0.41635388 -0.076622166 0.5139324 0.37746432
0.1153642 -0.122605816 0.36088026 -0.33125123 -0.22561006 0.0062392415 -0.3933247 0.33802754
0.25947398 -0.17055263 0.31585857 0.3234804 -0.3707326 -0.07522873 0.025600236 0.15442434
0.19268668 0.004712544 0.35140547 0.38377553 -0.18409899 0.46655738 -0.014862162 0.10700444
-0.32849902 -0.20626919 0.28934544 -0.2987755 0.33457473 -0.1930652 -0.15583992 -0.15601145
0.3138701 0.2042015 -0.24596938 0.108483076 0.5056846 0.32647702 0.51933545 0.078992836
-0.032593478 0.23254675 0.15892339 -0.10050673 -0.16776793 -0.18980366 0.15062054 0.44234246

lin2.bias f4 [16]
00000000: 5115 c13d 809e 833d b75d 263e ab1a 9dbd
00000010: 15b8 3abd 37c6 0ebe dcad 3abd b6f2 86bd
00000020: 9037 9b3e ff5e 4dbd ec13 37be 356b 273e
00000030: 8557 9e3e 5f02 c63e 7332 6e3e 57d6 19be
0.09427894 0.06426716 0.16246687 -0.07671102 -0.04558571 -0.139428 -0.04557596 -0.06589262
0.30315828 -0.050139423 -0.17878693 0.1634949 0.30926147 0.38673684 0.23261432 -0.1502317

lin3.weight f4 [10, 16]
00000000: 836d acbe 269d edbe 7a52 03bf 0c85 4b3e
00000010: e2a7 963e 17bc 683e 3870 9a3e af34 fdbd
00000020: 1164 dfbe 3df6 d73d cbf7 6e3e d790 233e
00000030: ffb2 09be fee1 843d 64a4 d8bd 0ed9 b0be
00000040: 05c5 8b3e 57a2 69bd d9ea 313e 924d d6be
00000050: b758 00bf be03 593e 946b 01bf 4d3e 1d3e
00000060: 21d9 f13d 3bc6 b1bd 1134 a2bd f71e 0a3e
00000070: 47e0 82be b3cf 06bf 3ed5 fdbe 82f1 483e
00000080: ff9f 13bd 57ab 803e b89c a3be 01c2 61be
00000090: afb3 85be 874d 593e 33f4 533e 8952 033e
000000a0: 5d33 a6be 119f d43d 53ea 043e ebfd d93e
000000b0: f571 c43c 988d 213e c19e d9be 83b2 b33d
000000c0: 3387 063f 06b6 9f3e 2b8c 673e 2303 8d3e
000000d0: aef6 08bf ff45 fdbd aa86 23be 597c 5ebe
000000e0: 7275 10be bfde 073e 7916 4f3e 7821 dabe
000000f0: 0da8 00be a326 f53d cfe6 c7bd e773 5ebe
00000100: 2ba4 0abf bb69 23be 45d0 fbbe ef26 9e3e
00000110: c5cc 1fbd 9e1a 84be 9bbf 55be 784a 09bf
00000120: 77bc d13e 4810 58be 0fbe 37be 9d93 e7bd
00000130: 06b4 92be 25b7 b23e 44a2 9c3e ef22 943c
00000140: a4db 51be f101 3dbe 9c16 e73d 7845 513e
00000150: 0ba3 6c3d bb51 253e 8923 62be 6a5e 28bf
00000160: e9ff 3fbe 1ee0 943c c7be 4f3e 329e 01bf
00000170: cc5c 803e 6ddd d93e 2224 9cbe 0a68 c6be
00000180: 340e ebbe d0b8 6fbe 75ae f83e a969 c1be
00000190: 4904 5a3e abd7 313e 86bd dabd 7973 39be
000001a0: a72e 00bf 2a55 37be 1452 323e 30d7 c83d
000001b0: b45e b6bb 53de 69be d1c3 03bf ea78 a43d
000001c0: 81d1 bdbd 8379 24be 0d6a ca3d e515 f8be
000001d0: 5bcb d2be 666b a7bd 9667 683e b0b7 a13d
000001e0: bd02 253d bb16 99bd 0c45 f5bd 5e4b e63d
000001f0: 2b9e ffbe 93ce 11be 7477 963e d7cb 03bf
00000200: 4d74 b73d 4097 1fbe 9487 843e 374e 963d
00000210: a4d1 973e 3190 57be 486d e7bd ba20 483e
00000220: 0f4f 333e 90e2 48be 54ed 86bd 93e2 4e3e
00000230: e7dd 563e 9189 c43d bb18 a13d bc51 c23e
00000240: eadb 78be 7ce3 19be 40e2 803e f1fb 30be
00000250: 3d00 553e 6e79 173e 085a 01bf 1215 b53d
00000260: 9ddc a53e 755c 10be 46ff 043e b49e 29be
00000270: 0e0b 02bf d385 1fbf 9c17 8a3e 2293 b13e
-0.336773 -0.46408957 -0.51297724 0.19874972 0.2942496 0.22728 0.3016374 -0.12363564
-0.43631032 0.10545013 0.23336713 0.15973221 -0.13447188 0.06488417 -0.1057823 -0.345406
0.2729875 -0.057039585 0.17374744 -0.41856056 -0.5013537 0.21192834 -0.50554776 0.15355797
0.11808992 -0.086803876 -0.07920087 0.13488375 -0.25561735 -0.52660674 -0.49576753 0.19623378
-0.036041256 0.25130722 -0.31955504 -0.22046663 -0.2611365 0.2122098 0.20698623 0.12824453
-0.32461062 0.10381902 0.12980013 0.42576537 0.02398012 0.1577667 -0.42503932 0.08774283
0.5255005 0.3119356 0.22612064 0.27541456 -0.53501403 -0.12366866 -0.15969339 -0.21727122
-0.14107302 0.13268565 0.20223416 -0.4260366 -0.12564106 0.1197026 -0.0976082 -0.217239
-0.5415675 -0.15958302 -0.49182335 0.3088908 -0.039013643 -0.25801557 -0.20873873 -0.53629255
0.409641 -0.21099961 -0.17943595 -0.11307452 -0.28652972 0.34905353 0.3059255 0.018083064
-0.20493942 -0.18457772 0.11283609 0.20436656 0.057772677 0.16144459 -0.22083868 -0.65769064
-0.18749966 0.018173274 0.2028762 -0.5063201 0.25070798 0.42551747 -0.30496317 -0.3875125
-0.45909274 -0.23410344 0.485706 -0.37775925 0.21290697 0.17367427 -0.1068068 -0.18110456
-0.50071186 -0.17903581 0.17414123 0.09806669 -0.0055654887 -0.22838716 -0.5147067 0.08030875
-0.09268475 -0.16061978 0.09883509 -0.48454204 -0.41170773 -0.081747815 0.22695765 0.07896364
0.040285815 -0.074750386 -0.1197606 0.11244844 -0.4992536 -0.14238958 0.2938801 -0.5148291
0.089577295 -0.15585041 0.25884688 0.07339137 0.2965213 -0.21051098 -0.113001406 0.19543734
0.17510627 -0.19617677 -0.065882355 0.20203619 0.20983087 0.09596551 0.07866045 0.37952983
-0.2430264 -0.15028185 0.25172615 -0.17283608 0.20800872 0.14792415 -0.50528 0.088419095
0.32394877 -0.1409777 0.12988004 -0.16564447 -0.5079812 -0.62313575 0.26971138 0.34682566

lin3.bias f4 [10]
00000000: 0e6c 00be 66ee 403d 95ca 52be 6db8 b03c
00000010: b38d 93be d944 3dbe 978a 843d 2212 60bb
00000020: b4d4 bf3d 78a1 d53d
-0.1254122 0.047102354 -0.20585091 0.021572316 -0.28819045 -0.18483295 0.064717464 -0.0034190495
0.09366742 0.10431188
